…
I0319 21:10:54.033246 21384 upgrade_proto.cpp:67] Attempting to upgrade input file specified using deprecated input fields: DeepModel_deploy.prototxt
I0319 21:10:54.033267 21384 upgrade_proto.cpp:70] Successfully upgraded file specified using deprecated input fields.
W0319 21:10:54.033272 21384 upgrade_proto.cpp:72] Note that future Caffe releases will only support input layers and not input fields.
I0319 21:10:54.519637 21384 net.cpp:58] Initializing net from parameters: 
name: "DeepModel"
state {
  phase: TEST
  level: 0
}
layer {
  name: "input"
  type: "Input"
  top: "data"
  input_param {
    shape {
      dim: 1
      dim: 1
      dim: 128
      dim: 128
    }
  }
}
layer {
  name: "convL1"
  type: "Convolution"
  bottom: "data"
  top: "convL1"
  convolution_param {
    num_output: 8
    kernel_size: 5
    weight_filler {
      type: "xavier"
    }
    bias_filler {
      type: "constant"
    }
  }
}
layer {
  name: "ReLUconvL1"
  type: "ReLU"
  bottom: "convL1"
  top: "convL1"
}
layer {
  name: "poolL1"
  type: "Pooling"
  bottom: "convL1"
  top: "poolL1"
  pooling_param {
    pool: MAX
    kernel_size: 4
    stride: 4
  }
}
layer {
  name: "convL2"
  type: "Convolution"
  bottom: "poolL1"
  top: "convL2"
  convolution_param {
    num_output: 8
    kernel_size: 5
    weight_filler {
      type: "xavier"
    }
    bias_filler {
      type: "constant"
    }
  }
}
layer {
  name: "ReLUconvL2"
  type: "ReLU"
  bottom: "convL2"
  top: "convL2"
}
layer {
  name: "poolL2"
  type: "Pooling"
  bottom: "convL2"
  top: "poolL2"
  pooling_param {
    pool: MAX
    kernel_size: 2
    stride: 2
  }
}
layer {
  name: "convL3"
  type: "Convolution"
  bottom: "poolL2"
  top: "convL3"
  convolution_param {
    num_output: 8
    kernel_size: 3
    weight_filler {
      type: "xavier"
    }
    bias_filler {
      type: "constant"
    }
  }
}
layer {
  name: "ReLUconvL3"
  type: "ReLU"
  bottom: "convL3"
  top: "convL3"
}
layer {
  name: "FC1"
  type: "InnerProduct"
  bottom: "convL3"
  top: "FC1"
  param {
    lr_mult: 1
  }
  inner_product_param {
    num_output: 1024
    weight_filler {
      type: "xavier"
    }
    bias_filler {
      type: "constant"
    }
  }
}
layer {
  name: "ReLUFC1"
  type: "ReLU"
  bottom: "FC1"
  top: "FC1"
}
layer {
  name: "DropoutFC1"
  type: "Dropout"
  bottom: "FC1"
  top: "FC1"
  dropout_param {
    dropout_ratio: 0.3
  }
}
layer {
  name: "FC2"
  type: "InnerProduct"
  bottom: "FC1"
  top: "FC2"
  param {
    lr_mult: 1
  }
  inner_product_param {
    num_output: 1024
    weight_filler {
      type: "xavier"
    }
    bias_filler {
      type: "constant"
    }
  }
}
layer {
  name: "ReLUFC2"
  type: "ReLU"
  bottom: "FC2"
  top: "FC2"
}
layer {
  name: "DropoutFC2"
  type: "Dropout"
  bottom: "FC2"
  top: "FC2"
  dropout_param {
    dropout_ratio: 0.3
  }
}
layer {
  name: "DoF"
  type: "InnerProduct"
  bottom: "FC2"
  top: "DoF"
  param {
    lr_mult: 1
  }
  inner_product_param {
    num_output: 47
    weight_filler {
      type: "xavier"
    }
    bias_filler {
      type: "constant"
    }
  }
}
layer {
  name: "DeepHandModel"
  type: "DeepHandModel"
  bottom: "DoF"
  top: "pred"
}
I0319 21:10:54.519727 21384 layer_factory.hpp:77] Creating layer input
I0319 21:10:54.519742 21384 net.cpp:100] Creating Layer input
I0319 21:10:54.519748 21384 net.cpp:408] input -> data
I0319 21:10:54.519767 21384 net.cpp:150] Setting up input
I0319 21:10:54.519775 21384 net.cpp:157] Top shape: 1 1 128 128 (16384)
I0319 21:10:54.519778 21384 net.cpp:165] Memory required for data: 65536
I0319 21:10:54.519783 21384 layer_factory.hpp:77] Creating layer convL1
I0319 21:10:54.519791 21384 net.cpp:100] Creating Layer convL1
I0319 21:10:54.519796 21384 net.cpp:434] convL1 <- data
I0319 21:10:54.519801 21384 net.cpp:408] convL1 -> convL1
I0319 21:10:54.520141 21384 net.cpp:150] Setting up convL1
I0319 21:10:54.520153 21384 net.cpp:157] Top shape: 1 8 124 124 (123008)
I0319 21:10:54.520156 21384 net.cpp:165] Memory required for data: 557568
I0319 21:10:54.520165 21384 layer_factory.hpp:77] Creating layer ReLUconvL1
I0319 21:10:54.520174 21384 net.cpp:100] Creating Layer ReLUconvL1
I0319 21:10:54.520177 21384 net.cpp:434] ReLUconvL1 <- convL1
I0319 21:10:54.520182 21384 net.cpp:395] ReLUconvL1 -> convL1 (in-place)
I0319 21:10:54.520189 21384 net.cpp:150] Setting up ReLUconvL1
I0319 21:10:54.520192 21384 net.cpp:157] Top shape: 1 8 124 124 (123008)
I0319 21:10:54.520195 21384 net.cpp:165] Memory required for data: 1049600
I0319 21:10:54.520200 21384 layer_factory.hpp:77] Creating layer poolL1
I0319 21:10:54.520205 21384 net.cpp:100] Creating Layer poolL1
I0319 21:10:54.520208 21384 net.cpp:434] poolL1 <- convL1
I0319 21:10:54.520213 21384 net.cpp:408] poolL1 -> poolL1
I0319 21:10:54.520221 21384 net.cpp:150] Setting up poolL1
I0319 21:10:54.520226 21384 net.cpp:157] Top shape: 1 8 31 31 (7688)
I0319 21:10:54.520229 21384 net.cpp:165] Memory required for data: 1080352
I0319 21:10:54.520232 21384 layer_factory.hpp:77] Creating layer convL2
I0319 21:10:54.520239 21384 net.cpp:100] Creating Layer convL2
I0319 21:10:54.520243 21384 net.cpp:434] convL2 <- poolL1
I0319 21:10:54.520249 21384 net.cpp:408] convL2 -> convL2
I0319 21:10:54.520273 21384 net.cpp:150] Setting up convL2
I0319 21:10:54.520278 21384 net.cpp:157] Top shape: 1 8 27 27 (5832)
I0319 21:10:54.520282 21384 net.cpp:165] Memory required for data: 1103680
I0319 21:10:54.520287 21384 layer_factory.hpp:77] Creating layer ReLUconvL2
I0319 21:10:54.520292 21384 net.cpp:100] Creating Layer ReLUconvL2
I0319 21:10:54.520295 21384 net.cpp:434] ReLUconvL2 <- convL2
I0319 21:10:54.520301 21384 net.cpp:395] ReLUconvL2 -> convL2 (in-place)
I0319 21:10:54.520306 21384 net.cpp:150] Setting up ReLUconvL2
I0319 21:10:54.520310 21384 net.cpp:157] Top shape: 1 8 27 27 (5832)
I0319 21:10:54.520313 21384 net.cpp:165] Memory required for data: 1127008
I0319 21:10:54.520316 21384 layer_factory.hpp:77] Creating layer poolL2
I0319 21:10:54.520321 21384 net.cpp:100] Creating Layer poolL2
I0319 21:10:54.520324 21384 net.cpp:434] poolL2 <- convL2
I0319 21:10:54.520330 21384 net.cpp:408] poolL2 -> poolL2
I0319 21:10:54.520336 21384 net.cpp:150] Setting up poolL2
I0319 21:10:54.520340 21384 net.cpp:157] Top shape: 1 8 14 14 (1568)
I0319 21:10:54.520344 21384 net.cpp:165] Memory required for data: 1133280
I0319 21:10:54.520346 21384 layer_factory.hpp:77] Creating layer convL3
I0319 21:10:54.520354 21384 net.cpp:100] Creating Layer convL3
I0319 21:10:54.520360 21384 net.cpp:434] convL3 <- poolL2
I0319 21:10:54.520366 21384 net.cpp:408] convL3 -> convL3
I0319 21:10:54.520382 21384 net.cpp:150] Setting up convL3
I0319 21:10:54.520387 21384 net.cpp:157] Top shape: 1 8 12 12 (1152)
I0319 21:10:54.520391 21384 net.cpp:165] Memory required for data: 1137888
I0319 21:10:54.520397 21384 layer_factory.hpp:77] Creating layer ReLUconvL3
I0319 21:10:54.520404 21384 net.cpp:100] Creating Layer ReLUconvL3
I0319 21:10:54.520407 21384 net.cpp:434] ReLUconvL3 <- convL3
I0319 21:10:54.520411 21384 net.cpp:395] ReLUconvL3 -> convL3 (in-place)
I0319 21:10:54.520416 21384 net.cpp:150] Setting up ReLUconvL3
I0319 21:10:54.520421 21384 net.cpp:157] Top shape: 1 8 12 12 (1152)
I0319 21:10:54.520423 21384 net.cpp:165] Memory required for data: 1142496
I0319 21:10:54.520427 21384 layer_factory.hpp:77] Creating layer FC1
I0319 21:10:54.520432 21384 net.cpp:100] Creating Layer FC1
I0319 21:10:54.520437 21384 net.cpp:434] FC1 <- convL3
I0319 21:10:54.520440 21384 net.cpp:408] FC1 -> FC1
I0319 21:10:54.525383 21384 net.cpp:150] Setting up FC1
I0319 21:10:54.525395 21384 net.cpp:157] Top shape: 1 1024 (1024)
I0319 21:10:54.525398 21384 net.cpp:165] Memory required for data: 1146592
I0319 21:10:54.525403 21384 layer_factory.hpp:77] Creating layer ReLUFC1
I0319 21:10:54.525409 21384 net.cpp:100] Creating Layer ReLUFC1
I0319 21:10:54.525413 21384 net.cpp:434] ReLUFC1 <- FC1
I0319 21:10:54.525418 21384 net.cpp:395] ReLUFC1 -> FC1 (in-place)
I0319 21:10:54.525424 21384 net.cpp:150] Setting up ReLUFC1
I0319 21:10:54.525427 21384 net.cpp:157] Top shape: 1 1024 (1024)
I0319 21:10:54.525431 21384 net.cpp:165] Memory required for data: 1150688
I0319 21:10:54.525434 21384 layer_factory.hpp:77] Creating layer DropoutFC1
I0319 21:10:54.525439 21384 net.cpp:100] Creating Layer DropoutFC1
I0319 21:10:54.525442 21384 net.cpp:434] DropoutFC1 <- FC1
I0319 21:10:54.525447 21384 net.cpp:395] DropoutFC1 -> FC1 (in-place)
I0319 21:10:54.525454 21384 net.cpp:150] Setting up DropoutFC1
I0319 21:10:54.525457 21384 net.cpp:157] Top shape: 1 1024 (1024)
I0319 21:10:54.525460 21384 net.cpp:165] Memory required for data: 1154784
I0319 21:10:54.525463 21384 layer_factory.hpp:77] Creating layer FC2
I0319 21:10:54.525470 21384 net.cpp:100] Creating Layer FC2
I0319 21:10:54.525473 21384 net.cpp:434] FC2 <- FC1
I0319 21:10:54.525477 21384 net.cpp:408] FC2 -> FC2
I0319 21:10:54.530079 21384 net.cpp:150] Setting up FC2
I0319 21:10:54.530092 21384 net.cpp:157] Top shape: 1 1024 (1024)
I0319 21:10:54.530095 21384 net.cpp:165] Memory required for data: 1158880
I0319 21:10:54.530103 21384 layer_factory.hpp:77] Creating layer ReLUFC2
I0319 21:10:54.530108 21384 net.cpp:100] Creating Layer ReLUFC2
I0319 21:10:54.530112 21384 net.cpp:434] ReLUFC2 <- FC2
I0319 21:10:54.530117 21384 net.cpp:395] ReLUFC2 -> FC2 (in-place)
I0319 21:10:54.530123 21384 net.cpp:150] Setting up ReLUFC2
I0319 21:10:54.530128 21384 net.cpp:157] Top shape: 1 1024 (1024)
I0319 21:10:54.530130 21384 net.cpp:165] Memory required for data: 1162976
I0319 21:10:54.530133 21384 layer_factory.hpp:77] Creating layer DropoutFC2
I0319 21:10:54.530138 21384 net.cpp:100] Creating Layer DropoutFC2
I0319 21:10:54.530143 21384 net.cpp:434] DropoutFC2 <- FC2
I0319 21:10:54.530146 21384 net.cpp:395] DropoutFC2 -> FC2 (in-place)
I0319 21:10:54.530151 21384 net.cpp:150] Setting up DropoutFC2
I0319 21:10:54.530155 21384 net.cpp:157] Top shape: 1 1024 (1024)
I0319 21:10:54.530158 21384 net.cpp:165] Memory required for data: 1167072
I0319 21:10:54.530161 21384 layer_factory.hpp:77] Creating layer DoF
I0319 21:10:54.530166 21384 net.cpp:100] Creating Layer DoF
I0319 21:10:54.530170 21384 net.cpp:434] DoF <- FC2
I0319 21:10:54.530175 21384 net.cpp:408] DoF -> DoF
I0319 21:10:54.530410 21384 net.cpp:150] Setting up DoF
I0319 21:10:54.530417 21384 net.cpp:157] Top shape: 1 47 (47)
I0319 21:10:54.530421 21384 net.cpp:165] Memory required for data: 1167260
I0319 21:10:54.530426 21384 layer_factory.hpp:77] Creating layer DeepHandModel
I0319 21:10:54.530443 21384 net.cpp:100] Creating Layer DeepHandModel
I0319 21:10:54.530452 21384 net.cpp:434] DeepHandModel <- DoF
I0319 21:10:54.530457 21384 net.cpp:408] DeepHandModel -> pred
I0319 21:10:54.530534 21384 net.cpp:150] Setting up DeepHandModel
I0319 21:10:54.530542 21384 net.cpp:157] Top shape: 1 93 (93)
I0319 21:10:54.530545 21384 net.cpp:165] Memory required for data: 1167632
I0319 21:10:54.530550 21384 net.cpp:228] DeepHandModel does not need backward computation.
I0319 21:10:54.530552 21384 net.cpp:228] DoF does not need backward computation.
I0319 21:10:54.530556 21384 net.cpp:228] DropoutFC2 does not need backward computation.
I0319 21:10:54.530560 21384 net.cpp:228] ReLUFC2 does not need backward computation.
…
